…
GPUs detected: [PhysicalDevice(name='/physical_device:GPU:0', device_type='GPU'), PhysicalDevice(name='/physical_device:GPU:1', device_type='GPU'), PhysicalDevice(name='/physical_device:GPU:2', device_type='GPU'), PhysicalDevice(name='/physical_device:GPU:3', device_type='GPU')]
GPU(s) available: [PhysicalDevice(name='/physical_device:GPU:0', device_type='GPU'), PhysicalDevice(name='/physical_device:GPU:1', device_type='GPU'), PhysicalDevice(name='/physical_device:GPU:2', device_type='GPU'), PhysicalDevice(name='/physical_device:GPU:3', device_type='GPU')]
Model: "CNN_normData2"
_________________________________________________________________
 Layer (type)                Output Shape              Param #   
=================================================================
 conv2d (Conv2D)             (None, 148, 148, 64)      640       
                                                                 
 batch_normalization (BatchN  (None, 148, 148, 64)     256       
 ormalization)                                                   
                                                                 
 conv2d_1 (Conv2D)           (None, 146, 146, 64)      36928     
                                                                 
 batch_normalization_1 (Batc  (None, 146, 146, 64)     256       
 hNormalization)                                                 
                                                                 
 max_pooling2d (MaxPooling2D  (None, 73, 73, 64)       0         
 )                                                               
                                                                 
 conv2d_2 (Conv2D)           (None, 71, 71, 128)       73856     
                                                                 
 batch_normalization_2 (Batc  (None, 71, 71, 128)      512       
 hNormalization)                                                 
                                                                 
 conv2d_3 (Conv2D)           (None, 69, 69, 128)       147584    
                                                                 
 batch_normalization_3 (Batc  (None, 69, 69, 128)      512       
 hNormalization)                                                 
                                                                 
 max_pooling2d_1 (MaxPooling  (None, 34, 34, 128)      0         
 2D)                                                             
                                                                 
 conv2d_4 (Conv2D)           (None, 32, 32, 256)       295168    
                                                                 
 batch_normalization_4 (Batc  (None, 32, 32, 256)      1024      
 hNormalization)                                                 
                                                                 
 conv2d_5 (Conv2D)           (None, 30, 30, 256)       590080    
                                                                 
 batch_normalization_5 (Batc  (None, 30, 30, 256)      1024      
 hNormalization)                                                 
                                                                 
 max_pooling2d_2 (MaxPooling  (None, 15, 15, 256)      0         
 2D)                                                             
                                                                 
 global_average_pooling2d (G  (None, 256)              0         
 lobalAveragePooling2D)                                          
                                                                 
 dense (Dense)               (None, 256)               65792     
                                                                 
 dropout (Dropout)           (None, 256)               0         
                                                                 
 dense_1 (Dense)             (None, 1)                 257       
                                                                 
=================================================================
Total params: 1,213,889
Trainable params: 1,212,097
Non-trainable params: 1,792
_________________________________________________________________
None
Found 7750 images belonging to 2 classes.
Found 16 images belonging to 2 classes.
Training samples: 7750
Validation samples: 16
…
