…
GPUs detected: [PhysicalDevice(name='/physical_device:GPU:0', device_type='GPU'), PhysicalDevice(name='/physical_device:GPU:1', device_type='GPU'), PhysicalDevice(name='/physical_device:GPU:2', device_type='GPU'), PhysicalDevice(name='/physical_device:GPU:3', device_type='GPU')]
GPU(s) available: [PhysicalDevice(name='/physical_device:GPU:0', device_type='GPU'), PhysicalDevice(name='/physical_device:GPU:1', device_type='GPU'), PhysicalDevice(name='/physical_device:GPU:2', device_type='GPU'), PhysicalDevice(name='/physical_device:GPU:3', device_type='GPU')]
Model: "my_cnn_model4"
_________________________________________________________________
 Layer (type)                Output Shape              Param #   
=================================================================
 conv2d (Conv2D)             (None, 222, 222, 32)      896       
                                                                 
 batch_normalization (BatchN  (None, 222, 222, 32)     128       
 ormalization)                                                   
                                                                 
 max_pooling2d (MaxPooling2D  (None, 111, 111, 32)     0         
 )                                                               
                                                                 
 conv2d_1 (Conv2D)           (None, 109, 109, 64)      18496     
                                                                 
 batch_normalization_1 (Batc  (None, 109, 109, 64)     256       
 hNormalization)                                                 
                                                                 
 max_pooling2d_1 (MaxPooling  (None, 54, 54, 64)       0         
 2D)                                                             
                                                                 
 flatten (Flatten)           (None, 186624)            0         
                                                                 
 dense (Dense)               (None, 128)               23888000  
                                                                 
 dropout (Dropout)           (None, 128)               0         
                                                                 
 dense_1 (Dense)             (None, 1)                 129       
                                                                 
=================================================================
Total params: 23,907,905
Trainable params: 23,907,713
Non-trainable params: 192
_________________________________________________________________
None
Found 5216 images belonging to 2 classes.
Found 16 images belonging to 2 classes.
Training samples: 5216
Validation samples: 16
…
